Machine Learning/Reinforcement/DQN/dqn_model.pth (torch, 81500 bytes, 6 tensors)

fc1.weight f4 [128, 7]
0	0x3ccaa75a	0.024738003
1	0xbe608c09	-0.21928419
2	0xbdfac989	-0.12245471
3	0x3eb6cd3e	0.35703462
4	0xbee4cf45	-0.44689384
5	0x3f0f80d8	0.56055975
6	0x3f26c2ce	0.65141
7	0x3e4c99d6	0.19980559
8	0x3d92a905	0.07161144
9	0x3ebc78fb	0.3681105
10	0xbc00286b	-0.007822136
11	0x3f4334ca	0.76252425
12	0x3e5ba8dd	0.21451135
13	0x3e3d1cfb	0.18468086
14	0xbf00a4ac	-0.5025127
15	0x3db49c54	0.0881888
16	0xbd5dfc99	-0.054195974
17	0x3ed6a621	0.4192362
18	0xbe2ec168	-0.17065966
19	0xbea989c6	-0.33112925
20	0x3ebfd017	0.37463447
21	0xbdb85a93	-0.09001651
22	0x3ecba181	0.39771655
23	0xbce28dbe	-0.027655479
24	0x3ec61623	0.38688764
25	0xbecb97d3	-0.3976427
26	0x3d6835a1	0.05669177
27	0xbecd299d	-0.4007081
28	0xbee88dc7	-0.45420668
29	0xbe1329e4	-0.14371449
30	0x3e614901	0.22000505
31	0xbe74a170	-0.23889709
32	0x3d251fda	0.04031358
33	0xbecb8f5a	-0.39757806
34	0x3b9f6bf7	0.0048651653
35	0x3ecd5fd7	0.40112182
36	0xbd90f7a2	-0.07078482
37	0xbe152a7d	-0.14566989
38	0xbe98ba24	-0.29829514
39	0x3e0d3e64	0.13793331
40	0x3f232c2c	0.63739276
41	0xbe038445	-0.12843426
42	0x3f02539a	0.50908816
43	0xbebe2aa9	-0.37141922
44	0x3f13b038	0.57690763
45	0xbf12c41c	-0.5733049
46	0x3df9c29a	0.121953204
47	0x3e18e497	0.1493095
48	0xbeba7fb1	-0.36425546
49	0x3e905979	0.28193262
50	0xbe3b5145	-0.1829272
51	0xbe867830	-0.2626357
52	0x3ee0a0b6	0.43872613
53	0x3e30df9c	0.172728
54	0x3d40ed09	0.047101054
55	0x3e7d2d81	0.2472439
56	0x3e09a9ea	0.13443723
57	0xbda8ec59	-0.08248205
58	0x3f0dfccb	0.55463856
59	0x3e94e31d	0.29079524
60	0x3e2fb33c	0.17158216
61	0x3e8527be	0.26006883
62	0x3e28b97e	0.1647701
63	0x3e90c333	0.28273925
64	0x3e1531a5	0.14569719
65	0x3e6e5952	0.2327626
66	0xbee78667	-0.45219728
67	0xbe98a91e	-0.29816526
68	0xbe5d6ed8	-0.21624315
69	0x3e887b1d	0.26656428
70	0x3f10c7af	0.56554693
71	0x3f062dc0	0.5241356
72	0x3ea19b4a	0.3156379
73	0x3f50f21f	0.8161945
74	0x3f244343	0.64165133
75	0x3ec9de03	0.39427194
76	0x3df5666b	0.11982425
77	0xbda8248f	-0.08210098
78	0x3e0160ad	0.12634535
79	0xbeb59ee2	-0.3547278
80	0xbe0db68a	-0.13839164
81	0x3ddb465e	0.10706781
82	0xbd85f5ae	-0.06541
83	0xbec6b957	-0.38813278
84	0x3ec9a675	0.3938481
85	0xbe77c7c0	-0.24197292
86	0xbe07026f	-0.13184522
87	0xbe9022c8	-0.28151536
88	0xbe9c0217	-0.30470344
89	0xbf681945	-0.9066356
90	0xbe123de1	-0.14281417
91	0xbe63a653	-0.22231416
92	0x3e72ebb0	0.2372272
93	0x3c03bdc5	0.00804085
94	0x3ea37af1	0.31929734
95	0x3e7fb917	0.2497295
96	0x3eb396ac	0.3507589
97	0xbf26a68b	-0.65097874
98	0xbdc7bb99	-0.09752578
99	0xbe8e75b2	-0.2782417
100	0xbe1e32c9	-0.1544906
101	0x3fb3498b	1.4006819
102	0x3ec5eed4	0.38658774
103	0xbef57c1c	-0.4794625
104	0x3ccbfb3a	0.024900068
105	0x3e8864ac	0.26639307
106	0x3db3d41b	0.0878069
107	0x3f1c1b15	0.60978824
108	0x3e94c866	0.29059142
109	0x3f38d58f	0.72200865
110	0xbefbe326	-0.49196738
111	0xbddd05c0	-0.10792112
112	0xbc1e55b9	-0.009663993
113	0xbebce1ac	-0.36890924
114	0xbd491e21	-0.049101
115	0x3e1e315f	0.15448521
116	0xbd7c7e01	-0.061643604
117	0xbf0c51c6	-0.54812276
118	0xbe7a77c7	-0.24459754
119	0x3e9214fe	0.2853164
120	0x3d6256fc	0.055258736
121	0x3ec720b7	0.38892147
122	0xbe4fdb5a	-0.2029852
123	0xbf6b73da	-0.9197365
124	0x3e28bbb1	0.16477849
125	0xbe6c5e45	-0.23082836
126	0xbe814c2b	-0.25253424
127	0xbe8281ac	-0.25489557
128	0xbe882921	-0.2659388
129	0xbeae7a5b	-0.34077725
130	0x3d9d00f9	0.07666201
131	0xbe34b39c	-0.1764664
132	0xbdd3f6ef	-0.10349833
133	0xbed2f100	-0.41199493
134	0xbd5af636	-0.05345746
135	0x3eccb80f	0.39984176
136	0x3ec34c42	0.38144118
137	0xbf2b6038	-0.66943693
138	0x3f0b8c2c	0.5451076
139	0xbe498638	-0.19680107
140	0xbe2e7b16	-0.17039141
141	0x3bcf3ec0	0.006324619
142	0x3e941a21	0.28926185
143	0x3e86efab	0.26354727
144	0x3ce665f0	0.02812478
145	0x3da80a08	0.08205038
146	0xbccba610	-0.024859458
147	0xbea1463d	-0.314989
148	0x3cecebb6	0.02892099
149	0xbe5e07be	-0.21682641
150	0x3d688ab2	0.056772895
151	0x3f236bfc	0.63836646
152	0xbed976ac	-0.42473352
153	0x3ecb8323	0.39748487
154	0x3dba93a0	0.091101885
155	0x3de5477f	0.111952774
156	0x3eeb743b	0.45987114
157	0xbf5f68be	-0.872692
158	0x3e22338e	0.15839979
159	0x3c361596	0.011113545
160	0xbddbf5f5	-0.10740272
161	0xbeb9ba7b	-0.36275086
162	0x3e8094be	0.2511348
163	0xbea8b230	-0.32948446
164	0xbee1874e	-0.44048542
165	0x3e7d0f33	0.2471283
166	0x3e1288ca	0.14309993
167	0x3e7e9c7f	0.24864386
168	0xbe11684d	-0.14199944
169	0x3f169ddf	0.5883464
170	0x3f07615d	0.5288294
171	0xbe7a3636	-0.24434742
172	0x3f570c9a	0.84003603
173	0xbf07cc00	-0.53045654
174	0x3e8510da	0.2598942
175	0xbf069c3a	-0.5258213
176	0x3e3840fe	0.17993543
177	0x3eef02b4	0.4668175
178	0xbec04cd5	-0.37558618
179	0xbee2f440	-0.44326973
180	0xbe94c5d3	-0.29057178
181	0x3f16840d	0.58795244
182	0xbe91a502	-0.28446203
183	0x3ead48ef	0.33844706
184	0xbe0288e0	-0.12747526
185	0xbe17ed00	-0.14836502
186	0xbe33b9da	-0.17551365
187	0x3f1e7738	0.61900663
188	0xbe05c4bf	-0.13063334
189	0xbe141f4f	-0.14465068
190	0x3cc51377	0.024057133
191	0x3d66edf3	0.05637927
192	0xbd916be1	-0.071006544
193	0xbde966f0	-0.11396587
194	0x3c9f94ff	0.019480227
195	0x3dbe6dc0	0.09298277
196	0x3e28ffda	0.1650385
197	0x3f59eb18	0.8512435
198	0xbdd6a938	-0.10481495
199	0xbe4efc98	-0.20213544
200	0x3dbf5ccc	0.093438715
201	0xbed9a290	-0.42506838
202	0x3ea7acd8	0.32749057
203	0x3e9bdc4d	0.30441514
204	0x3d57ae21	0.052656297
205	0xbf00afd7	-0.5026831
206	0xbc208625	-0.009797608
207	0x3ee2cb3f	0.4429569
208	0xbd92fdd5	-0.07177321
209	0xbf19a30a	-0.600144
210	0x3eade70f	0.33965346
211	0xbe0ff9f7	-0.14060198
212	0xbdbdf9a8	-0.09276134
213	0x3f043b1c	0.51652694
214	0xbe980e6c	-0.29698503
215	0xbe6835a5	-0.22676714
216	0x3f2e144f	0.6799974
217	0x3ef0ee79	0.4705694
218	0xbdc38ef3	-0.0954875
219	0x3e9dc0bd	0.3081111
220	0x3cc7e64e	0.02440181
221	0xbf65804b	-0.89648885
222	0x3f18d342	0.59697354
223	0xbe1e84b4	-0.1548031
224	0xbe52131d	-0.20515104
225	0xbded72b2	-0.11594142
226	0x3e3a3720	0.18185091
227	0xbe063694	-0.13106757
228	0xbed14d66	-0.40879363
229	0xbd9d34e1	-0.076761015
230	0x3ee192e2	0.44057375
231	0x3d8c49a1	0.06849981
232	0xbe4fbe65	-0.20287473
233	0xbe0c0ce0	-0.13676786
234	0x3e9224d4	0.28543723
235	0xbf115228	-0.56765985
236	0xbf1602ed	-0.58598214
237	0x3eb5df3b	0.35521874
238	0x3f456480	0.77106476
239	0x3cce8e2b	0.025214275
240	0x3f28afcc	0.65893245
241	0x3ed2a654	0.41142523
242	0xbe849b64	-0.25899804
243	0x3e85a451	0.26101926
244	0x3cdcbcf8	0.026945576
245	0xbd41c262	-0.04730452
246	0x3f40fed8	0.7538886
247	0x3e7c8f46	0.2466403
248	0xbd07229f	-0.032992
249	0xbf1d01de	-0.61330974
250	0xbf05b2a4	-0.5222571
251	0x3f08535e	0.5325221
252	0xbe973350	-0.29531336
253	0xbf0c4c3b	-0.5480382
254	0x3dbf4b04	0.0934048
255	0xbeaf20d0	-0.3420472

fc1.bias f4 [128]
0	0xbe8413f1	-0.25796464
1	0xbd8fbeb1	-0.070187934
2	0x3ec63bae	0.38717407
3	0x3ee97fce	0.4560532
4	0xbdd7e24c	-0.105412096
5	0x3ee85db2	0.45383984
6	0xbe374263	-0.17896418
7	0x3ef2fef3	0.47460136
8	0xbc0e8534	-0.00869875
9	0xbee9cfe6	-0.45666426
10	0x3e9e1c71	0.30881074
11	0x3e4f15a7	0.20223103
12	0x3ee3aa4b	0.4446586
13	0xbe597f21	-0.21239902
14	0x3dc3352e	0.095316276
15	0xb9198cb8	-0.00014643639
16	0xbdf9e3bb	-0.12201639
17	0xbe1557c3	-0.1458426
18	0x3de32a26	0.110920236
19	0x3e1c6020	0.15271044
20	0xbe79cd58	-0.24394739
21	0x3de878b9	0.11351151
22	0xbe8d29d5	-0.27570978
23	0xbeb09d64	-0.3449508
24	0xbe95b87f	-0.29242322
25	0x3e3c6672	0.18398455
26	0xbe431182	-0.19049647
27	0xbf14c67a	-0.5811535
28	0xbe8c10ae	-0.27356476
29	0x3d0c31c9	0.034227166
30	0xbecb5cba	-0.39719182
31	0xbe8ace1a	-0.27110368
32	0xbf11ed71	-0.5700293
33	0x3dc03618	0.093853176
34	0xbc849cd7	-0.016188068
35	0x3ea09626	0.31364554
36	0x3d9429f0	0.072345614
37	0x3ebbf232	0.36708218
38	0x3e724f07	0.23662959
39	0x3eb2a366	0.34890288
40	0xbe7e9bd4	-0.24864131
41	0x3f14ad8a	0.580773
42	0xbee9191b	-0.45526966
43	0x3f06f1b7	0.5271258
44	0xbd3fdc10	-0.046840727
45	0x3ea77222	0.32704264
46	0x3eb38186	0.35059756
47	0xbea5107e	-0.32239145
48	0xbe23ed4e	-0.16008493
49	0x3e35b5a5	0.17745073
50	0xbe59200a	-0.21203628
51	0xbdb188ad	-0.08668647
52	0xbf0a2956	-0.53969324
53	0x3e3ab732	0.18233946
54	0x3ea3f298	0.32021022
55	0xbc9a6a4a	-0.01884951
56	0x3e4c1cfb	0.1993293
57	0x3e2cb230	0.16864848
58	0xbef3a51f	-0.47586915
59	0xbe4269ac	-0.18985623
60	0xbe030444	-0.12794596
61	0xbedcf747	-0.43157408
62	0x3e8c1539	0.27359942
63	0xbe4882fe	-0.1958122
64	0x3e2026e4	0.15639836
65	0xbea87da3	-0.32908353
66	0xbd67eb01	-0.0566206
67	0xbe50998e	-0.20371076
68	0xbef89668	-0.4855225
69	0x3ea212a2	0.3165484
70	0xbe94cd5d	-0.2906293
71	0xbf01266c	-0.5044925
72	0xbeda29d7	-0.42610046
73	0xbf444426	-0.76666486
74	0x3ec3cb22	0.38240916
75	0xbe533eff	-0.206295
76	0x3db26041	0.08709765
77	0x3e0a168b	0.13485162
78	0x3f510bdb	0.81658715
79	0xbd9fea23	-0.0780833
80	0xbe76f579	-0.24117078
81	0x3d00c6da	0.03143964
82	0x3e8d53a5	0.27602878
83	0xbeb5b2e0	-0.35488033
84	0xbecc1f27	-0.39867517
85	0xbe1058d3	-0.14096384
86	0xbe95d061	-0.29260543
87	0x3edf3188	0.43592477
88	0xbe643d73	-0.22289066
89	0xbe2a9032	-0.16656569
90	0xbf02d10a	-0.5110022
91	0xbef380b9	-0.47559145
92	0xbe11d70b	-0.14242189
93	0xbd7b8d52	-0.06141407
94	0xbef4f62b	-0.4784406
95	0xbc32a088	-0.010902531
96	0xbeb4b8fc	-0.35297382
97	0xbcaad544	-0.020853646
98	0xbe1017b9	-0.1407155
99	0xbede26e3	-0.43389043
100	0x3e7bffc0	0.2460928
101	0xbf252a84	-0.64518
102	0x3e995bb9	0.2995279
103	0xbdc093f5	-0.094032206
104	0x3e3b37d2	0.18283013
105	0xbdec18d9	-0.11528177
106	0xbd6029bd	-0.054727305
107	0x3e36ce0b	0.17852037
108	0xbecbcd89	-0.39805248
109	0x3eb0d29c	0.34535682
110	0xbecf7780	-0.4052086
111	0x3ea7b289	0.327534
112	0x3ea68db7	0.32529995
113	0x3e2e397e	0.17014119
114	0xbe1a1394	-0.15046531
115	0xbd961189	-0.07327563
116	0xbef9cf7d	-0.48791113
117	0xbeb99d14	-0.36252654
118	0xbca53cc1	-0.020170571
119	0xbe503449	-0.20332445
120	0xbf11aadc	-0.56901336
121	0xbe888cea	-0.2667001
122	0x3f03517f	0.5129623
123	0xbe8d6cff	-0.2762222
124	0xbb0fb57e	-0.0021928246
125	0x3dbc11aa	0.09183057
126	0x3dd98f19	0.10622997
127	0x3d0e56ff	0.034750935

fc2.weight f4 [128, 128]
0	0xbd2c5095	-0.042069037
1	0xbe21044b	-0.15724294
2	0xbddf6989	-0.10908801
3	0xbb32494e	-0.0027204338
4	0x3d87372d	0.06602321
5	0xbe65d86e	-0.22445843
6	0xbf4fc510	-0.8116007
7	0xbf300284	-0.6875384
8	0xbe07b58d	-0.1325285
9	0xbdfdfd9c	-0.12401888
10	0xbe721958	-0.2364248
11	0x3c9c174b	0.019054076
12	0x3ca1ebe9	0.019765811
13	0xbd47da5a	-0.04879222
14	0xbcf86b25	-0.030324528
15	0x3e7afb7b	0.24509995
16	0xbdd53602	-0.10410692
17	0xbf39f8b6	-0.7264513
18	0xbd31a31a	-0.043368436
19	0x3e6b0c84	0.22953993
20	0x3cb0f5a4	0.021601506
21	0xbe1a2418	-0.15052831
22	0xbdccd72f	-0.100019805
23	0x3d563706	0.05229857
24	0x3ea00a17	0.31257698
25	0x3e8095eb	0.25114378
26	0x3de4e0ed	0.11175714
27	0x3e8ef22e	0.27919143
28	0x3defbc5d	0.11705849
29	0xbe335687	-0.17513476
30	0xbecc30df	-0.39881036
31	0xbf2d1393	-0.6760799
32	0x3d329d93	0.043607306
33	0xbee45d68	-0.44602513
34	0xbda9ae1e	-0.08285163
35	0xbebd31cb	-0.36952052
36	0xbb1f597c	-0.0024314811
37	0xbef0991e	-0.4699182
38	0xbe7f4780	-0.24929619
39	0x3e78bf39	0.24291696
40	0x3e8e4d69	0.27793434
41	0xbe9f9fa3	-0.3117648
42	0xbe8a6b10	-0.27034807
43	0xbd9372be	-0.0719962
44	0xbd72709d	-0.059189428
45	0xb9fc5509	-0.00048128542
46	0xbd88aa4c	-0.066731066
47	0xbe96f1cf	-0.2948136
48	0x3c2ec07b	0.010666008
49	0xbd800589	-0.06251056
50	0xbeeb7183	-0.4598504
51	0x3d74d415	0.05977257
52	0xbd1967f7	-0.037452664
53	0x3e9341d1	0.2876115
54	0xbe5d7276	-0.21625695
55	0xbd8d1451	-0.06888641
56	0x3dea779e	0.114485964
57	0x3e256271	0.16150834
58	0xbf7c58f4	-0.9857323
59	0x3e30ea91	0.1727698
60	0xbf811411	-1.0084249
61	0xbe0ea236	-0.13929066
62	0xbd349b8c	-0.044093654
63	0xbeb5f41a	-0.35537797
64	0xbcfd7bd9	-0.030942844
65	0xbdf6d53f	-0.12052392
66	0x3e8fed30	0.28110647
67	0xbef9f8fd	-0.48822775
68	0xbf62d693	-0.88608664
69	0x3d421daa	0.04739157
70	0x3db99874	0.09062281
71	0xbe2e823c	-0.17041868
72	0xbe430369	-0.1904427
73	0xbe0dc5da	-0.13845006
74	0xbca4a0e9	-0.02009626
75	0xbf0f1141	-0.558857
76	0xbe326d38	-0.17424476
77	0x3e973fa6	0.29540747
78	0xbdba198c	-0.09086904
79	0xbe2fc435	-0.17164691
80	0x3e9a020f	0.30079696
81	0xbb84288d	-0.0040331543
82	0x3d303e33	0.043028068
83	0x3e244ac4	0.16044146
84	0xbf3e8763	-0.74425334
85	0xbe2cd78b	-0.16879098
86	0xbf463ea7	-0.7743935
87	0xbdf7b8cc	-0.12095794
88	0xbdc2eb6b	-0.09517559
89	0xbd5746f5	-0.052557904
90	0xbf2eac96	-0.68232095
91	0xbda3e3d0	-0.08002436
92	0x3e65cb1d	0.22440763
93	0x3e8d0ef9	0.27550486
94	0x3e3926b5	0.18081172
95	0x3e234c05	0.15946968
96	0x3de7e5c6	0.11323123
97	0x3d05dd3d	0.032681692
98	0x3e520804	0.2051087
99	0x3d84baad	0.06480918
100	0x3f4d90e6	0.8029922
101	0x3e1e8de5	0.15483816
102	0x3dc8d53c	0.09806296
103	0x3c336690	0.010949746
104	0x3d04ff93	0.032470297
105	0xbedd45d5	-0.4321734
106	0xbb1b51ce	-0.0023699882
107	0xbe96e9e9	-0.29475334
108	0x3e401bc8	0.18760598
109	0xbe8f2529	-0.27958038
110	0x3ea6c850	0.325747
111	0x3d983e32	0.07433738
112	0xbf198d1e	-0.5998095
113	0x3d35df18	0.044402212
114	0x3e4ff618	0.20308721
115	0xbe47375d	-0.19454713
116	0xbe20e05a	-0.15710583
117	0x3cc1e4e4	0.023668714
118	0x3be4d3b3	0.0069832443
119	0xbee37e81	-0.44432452
120	0xbf41f178	-0.7575908
121	0xbe910dad	-0.28330746
122	0x3c0fe962	0.00878367
123	0x3ec745d0	0.3892045
124	0x3df68dfd	0.12038801
125	0xbf8ef387	-1.1168069
126	0x3e8fedf3	0.28111228
127	0xbf0e5240	-0.55594254
128	0xbe6f007b	-0.23340027
129	0x3de750e2	0.11294724
130	0xbbb252df	-0.005442008
131	0x3cd9d499	0.026590632
132	0x3dc4a497	0.096017055
133	0x3d17aa0b	0.0370274
134	0x3d3966fb	0.045264225
135	0xbe145f3e	-0.14489457
136	0xbd990662	-0.074719205
137	0xbc2fdaeb	-0.010733346
138	0xb86425f0	-5.4394768e-05
139	0xbdf8845d	-0.12134621
140	0xbda5c03f	-0.08093309
141	0xbee9d77e	-0.4567222
142	0xbeddd8ec	-0.4332956
143	0x3e173c28	0.14769042
144	0xbcba31aa	-0.02272876
145	0x3e0776d9	0.1322893
146	0xba53d020	-0.0008080024
147	0x3db031b7	0.08603232
148	0x3c7445e0	0.014909238
149	0xbe99b23c	-0.30018795
150	0x3d838758	0.06422299
151	0xbe1a5012	-0.15069607
152	0xbeabc5a3	-0.33549222
153	0x3dbd91bb	0.092563115
154	0xbe89857b	-0.2685965
155	0x3d0af826	0.03392806
156	0xbdcc9375	-0.09989063
157	0xbdaada92	-0.0834247
158	0xbceb6676	-0.02873538
159	0xbf1218ba	-0.5706898
160	0x3e43ab62	0.19108346
161	0xbcc69cf2	-0.02424476
162	0xbdba5013	-0.09097304
163	0xbe43a6a3	-0.19106536
164	0xbd2fe970	-0.042947233
165	0x3df68131	0.1203636
166	0xbd795113	-0.060868334
167	0xbe4a8e21	-0.1978078
168	0xbeffb1a6	-0.49940223
169	0x3d33ef2c	0.043929264
170	0x3e6bcb68	0.23026812
171	0xbd77a891	-0.06046349
172	0xbdfda873	-0.12385645
173	0x3df6fbbc	0.12059733
174	0xbd533a84	-0.051569477
175	0xbbacea97	-0.0052769887
176	0x3e03d82b	0.1287543
177	0xbcc6361e	-0.024195727
178	0x3d300c4c	0.042980477
179	0xbe0591b5	-0.13043864
180	0xbcba0a43	-0.022709971
181	0xbde9020d	-0.11377344
182	0xbea76bc6	-0.32699412
183	0xbd8f77b5	-0.07005254
184	0xbe818ee0	-0.25304317
185	0xbe34fe90	-0.17675233
186	0x3e002b35	0.12516482
187	0xbef6f8cb	-0.4823669
188	0x3d7e551e	0.062092893
189	0xbbfe6295	-0.0077632167
190	0xbdb468fd	-0.088090874
191	0xbda6c5c4	-0.081431895
192	0xbda9d1ca	-0.08291967
193	0x3d318a1e	0.04334461
194	0xbba8b117	-0.005148064
195	0x3dd4762f	0.10374104
196	0xbe8e4131	-0.27784112
197	0xbdbd1421	-0.09232355
198	0xbdedb458	-0.116066635
199	0xbd3e886e	-0.04651683
200	0x3deb371a	0.11485119
201	0x3e011a74	0.12607747
202	0x3de343fd	0.11096952
203	0xbdd5d65d	-0.10441277
204	0x3be00be0	0.006837353
205	0xbea72bd8	-0.32650638
206	0xbe60d304	-0.21955496
207	0x3e0acb9d	0.13554235
208	0xbc45181a	-0.012029672
209	0xbd22fe01	-0.03979302
210	0xbe2f7cc6	-0.17137441
211	0x3cdd69a4	0.027027912
212	0xbda51c65	-0.080620565
213	0xbea7c70f	-0.32769057
214	0x3dc5eb52	0.096640244
215	0xbde3bb82	-0.11119749
216	0xbbaa7952	-0.005202451
217	0xbd4912d0	-0.049090207
218	0xbe1ee942	-0.15518668
219	0xbc0145b2	-0.007890152
220	0xbef6f43e	-0.48233217
221	0x3cbfbf76	0.023406725
222	0xbea9e0b7	-0.33179256
223	0xbe3a7f3e	-0.18212602
224	0xbd9df0a5	-0.07711915
225	0xbe035eb6	-0.12829098
226	0xbe3b26b3	-0.18276481
227	0x3d64b1a0	0.05583346
228	0xbdc20d30	-0.094751716
229	0x3e0302c5	0.12794025
230	0xbd09f6a9	-0.0336825
231	0x3e1d8cf6	0.15385804
232	0xbdbf2f36	-0.09335177
233	0xbcbcbebe	-0.023040172
234	0xbe03d0d4	-0.1287263
235	0x3d2644c6	0.04059293
236	0xbea7742a	-0.32705814
237	0x3ca4a1e1	0.020096721
238	0xbf48548a	-0.78253996
239	0xbde006af	-0.10938775
240	0xbcb892d7	-0.022530956
241	0xbe562894	-0.20913917
242	0x3ed9c325	0.42531696
243	0xbdf139f6	-0.11778633
244	0xbc81a0fd	-0.015823836
245	0xbd3caf1b	-0.04606543
246	0xbdebd06d	-0.115143634
247	0xbe154a09	-0.14579023
248	0xbd91edfe	-0.071254715
249	0xbcbfc2bf	-0.023408292
250	0xbbcb403d	-0.006202726
251	0xbe58bae5	-0.21165045
252	0xbdd3a73a	-0.1033463
253	0x3da8cb4e	0.08241902
254	0xbd604eb4	-0.054762557
255	0x3d53ae8a	0.051680125

fc2.bias f4 [128]
0	0xbd64290d	-0.05570321
1	0x3c9acb29	0.018895702
2	0x3e47e85a	0.19522229
3	0x3e4e6b4b	0.20158117
4	0xbb88f843	-0.0041799857
5	0xbdb1f022	-0.0868838
6	0xbe1a32cd	-0.15058441
7	0x3d366126	0.04452624
8	0x3e27ae00	0.1637497
9	0x3e42af8c	0.19012278
10	0x3e02ceb5	0.12774165
11	0x3cbb9c00	0.022901535
12	0xbc99029f	-0.018678008
13	0x3d560f15	0.052260477
14	0x3bbdec80	0.0057960153
15	0xbbdd281e	-0.006749167
16	0x3d2492d5	0.040179092
17	0xbdefb497	-0.11704367
18	0x3c95984f	0.018261103
19	0x3d106e54	0.035261467
20	0x3d532db8	0.051557273
21	0x3d2ad834	0.041710094
22	0xbd8f4bdc	-0.06996891
23	0x3eb0bcba	0.34518987
24	0x3e5da12f	0.21643518
25	0xbdfea21a	-0.12433262
26	0x3e493d9b	0.19652407
27	0x3db42421	0.087959535
28	0x3ea102b2	0.3144737
29	0xbd7bd81a	-0.061485387
30	0x3c1adc0e	0.009451879
31	0xbcc6b75f	-0.02425736
32	0x3e58f6c7	0.21187888
33	0x3c548d76	0.01297318
34	0xbe372604	-0.17885596
35	0xbd80ea8d	-0.06294737
36	0xbbba512b	-0.0056859455
37	0x3ea88b02	0.32918555
38	0xbd0e0af5	-0.03467842
39	0xbe8780ae	-0.26465362
40	0xbda0406e	-0.07824789
41	0x3c7aa1ca	0.015297363
42	0x3e81e795	0.25371996
43	0xbc1bfeec	-0.009521227
44	0xbdbfeb71	-0.09371079
45	0x3d64fe9d	0.05590688
46	0x3b75a04f	0.0037479585
47	0x3e273b48	0.16331208
48	0x3daed8b9	0.0853743
49	0xbdc67a32	-0.09691276
50	0xbdc27e88	-0.0949679
51	0x3eb13143	0.34607896
52	0xbda94704	-0.08265498
53	0x3d9f4b1f	0.07778
54	0xbd9ecdcf	-0.077540986
55	0x3cc84601	0.024447443
56	0x3ed13953	0.40864047
57	0x3ebdcb89	0.37069348
58	0xbdbb34a5	-0.091409005
59	0x3e515e48	0.20446122
60	0x3e1970ac	0.14984387
61	0xbe431048	-0.1904918
62	0x3e2a5c15	0.16636689
63	0x3e4dff67	0.2011696
64	0x3e2fd53c	0.17171186
65	0xbd4d2d18	-0.050091833
66	0x3d94e6da	0.07270594
67	0x3cdcc777	0.026950581
68	0x3e14f1cc	0.14545363
69	0xbd282d8f	-0.041059073
70	0x3dfdbfd8	0.12390107
71	0xbdbe468c	-0.092907995
72	0xbd518054	-0.051147774
73	0x3d6ed687	0.058310058
74	0xbda3d4a2	-0.07999541
75	0xbcf12a72	-0.029439185
76	0xbdce0b83	-0.100607894
77	0xbeaa9905	-0.3331987
78	0x3dd4b9c9	0.10386998
79	0x3dc318b7	0.09526198
80	0x3d3c6ead	0.046003986
81	0xbd3f10ca	-0.04664687
82	0x3e59d801	0.21273805
83	0x3eaa04f1	0.33206895
84	0x3dd261b0	0.10272539
85	0xbd0aa3ef	-0.033847746
86	0x3d2ee29b	0.042696577
87	0xbe55981e	-0.2085881
88	0xbe4db37f	-0.20088004
89	0xbda5cec5	-0.08096079
90	0xbd972c7d	-0.07381532
91	0x3ed28f9a	0.41125184
92	0xbca82b54	-0.020528473
93	0xbe5a4fe4	-0.21319538
94	0xbe11e184	-0.14246184
95	0xbdc5d4d0	-0.096597314
96	0xbe37393d	-0.17892928
97	0x3e241dac	0.16026944
98	0x3e18b553	0.1491292
99	0x3c8972cc	0.016778372
100	0x3dfc4d12	0.123193875
101	0x3dfac276	0.12244122
102	0x3ec3ce0a	0.38243133
103	0xbbac67b4	-0.005261386
104	0xbc79626c	-0.0152212195
105	0x3e165e56	0.14684424
106	0x3eaf65f6	0.34257478
107	0x3d09143d	0.033466566
108	0xbd678579	-0.056523774
109	0x3e12752d	0.14302512
110	0x3e488fee	0.19586155
111	0xbd0fc4ed	-0.035099912
112	0x3d9fac2a	0.077965096
113	0x3d890be1	0.06691719
114	0x3bca002c	0.0061645713
115	0xbcdab6a8	-0.026698425
116	0x3e8536c1	0.26018336
117	0x3ea7e547	0.32792112
118	0xbcf84cee	-0.03031012
119	0xbdc01b8b	-0.093802534
120	0x3dd726d9	0.105054565
121	0xbe13c885	-0.14431961
122	0xbc9aca97	-0.01889543
123	0x3cc00683	0.023440605
124	0xbe2a95ee	-0.16658756
125	0xbdeed43a	-0.11661573
126	0x3e95b6c0	0.2924099
127	0x3d1ff937	0.03905603

fc3.weight f4 [17, 128]
0	0xbe686ce2	-0.22697785
1	0xbc6fd08d	-0.014637125
2	0xbdbf29e0	-0.09334159
3	0xbead38ad	-0.33832303
4	0x3d2f2cc0	0.042767286
5	0xbd9634bb	-0.07334276
6	0xbe36ea48	-0.17862809
7	0x3e0a8b23	0.13529639
8	0x3de102b2	0.10986842
9	0xbef16604	-0.47148144
10	0x3e922115	0.28540865
11	0x3d151e51	0.036405865
12	0x3dc0dcfd	0.0941715
13	0xbe29510e	-0.16534826
14	0x3d040559	0.032231662
15	0x3ccf52a6	0.025307965
16	0x3c93431e	0.01797634
17	0xbd7243c9	-0.059146676
18	0x3e5aaf0d	0.21355839
19	0xbdb7f992	-0.08983149
20	0xbe432fa5	-0.19061144
21	0x3e057d92	0.13036183
22	0xbd8569f7	-0.06514352
23	0x3e8034cc	0.2504028
24	0x3dc8263f	0.0977292
25	0x3dcf080d	0.101089574
26	0x3e0cadee	0.13738224
27	0x3e313334	0.17304689
28	0x3ea11b9b	0.31466374
29	0x3d28ee11	0.041242663
30	0xbe51e0c4	-0.20495898
31	0xbd8954b3	-0.06705608
32	0x3ea2940b	0.31753573
33	0x3d026366	0.031833075
34	0xbe2159e8	-0.15756953
35	0xbd1b951d	-0.037984002
36	0xbd72fbfa	-0.059322335
37	0x3ebc425e	0.36769384
38	0x3d115237	0.035478797
39	0xbebf3736	-0.3734681
40	0xbebaf38a	-0.3651393
41	0x3d593836	0.053032123
42	0x3d64525a	0.0557426
43	0xbe7d7929	-0.2475325
44	0xbcd9609e	-0.026535328
45	0x3d3c0f54	0.045913056
46	0xbec2b25f	-0.3802671
47	0xbeee5019	-0.46545485
48	0xbec44467	-0.38333437
49	0xbe2f1729	-0.17098679
50	0xbc9db868	-0.01925297
51	0x3e90161c	0.28141868
52	0x3e88e584	0.26737607
53	0x3c77192d	0.015081686
54	0x3e98fbd6	0.29879636
55	0xbd51108e	-0.05104118
56	0x3e4f4e1b	0.20244639
57	0x3e8adfcf	0.27123877
58	0x3cad8b7b	0.021184674
59	0x3e826a0d	0.25471535
60	0x3d8f97d6	0.07011382
61	0xbd8bf35f	-0.06833529
62	0x3e550aec	0.20804948
63	0x3e50a585	0.2037564
64	0xbe0328ff	-0.12808608
65	0x3cd51614	0.026011504
66	0x3d8f40c1	0.06994773
67	0xbdb9f49c	-0.09079859
68	0x3d939a90	0.07207215
69	0xbc278a58	-0.010225855
70	0x3de8bbb5	0.11363927
71	0xbd75cf6a	-0.06001226
72	0xbe61e562	-0.22060159
73	0xbe8df171	-0.27723268
74	0xbe9b9824	-0.30389512
75	0xbdac8b35	-0.08424989
76	0x3d8a1633	0.067425154
77	0xbd8d6fe3	-0.06906106
78	0x3e3f7291	0.18696047
79	0x3c3d46c5	0.011552517
80	0xbd1e3c2d	-0.038631607
81	0x3e18826f	0.14893506
82	0xbeba43e7	-0.3637993
83	0x3e916cd8	0.28403354
84	0x3e4f901a	0.20269814
85	0xbdf7c70a	-0.120985106
86	0xbd730fe1	-0.059341315
87	0x3ceb2a9f	0.028706847
88	0xbe861e39	-0.26194933
89	0x3d83eeea	0.064420536
90	0xbdc9f784	-0.09861663
91	0x3e9b3271	0.3031192
92	0xbea77d61	-0.32712844
93	0xbdee6205	-0.116397895
94	0xbdba62d2	-0.0910088
95	0xbd1a2e04	-0.03764154
96	0x3e39504f	0.18097042
97	0x3e26a9e6	0.16275749
98	0xbdbb05d9	-0.09131975
99	0x3d8c481d	0.06849692
100	0x3e8fe185	0.28101745
101	0x3e943c53	0.28952274
102	0x3e922f1d	0.2855157
103	0xbe27920a	-0.16364303
104	0x3d249a90	0.040186465
105	0xbf04ae53	-0.518285
106	0xbf0b3e8f	-0.5439233
107	0xbea1698d	-0.3152584
108	0xbdb440f7	-0.088014536
109	0xbe1268ce	-0.14297792
110	0x3d98a63b	0.07453581
111	0xbdefa611	-0.117015965
112	0xbecd43e3	-0.40090856
113	0xbeb819de	-0.35957235
114	0xbdc1dbec	-0.09465775
115	0x3d6490ce	0.05580216
116	0x3e895451	0.2682214
117	0x3e807f69	0.25097206
118	0xbd1651dc	-0.03669916
119	0x3da26283	0.07928946
120	0xbecafca4	-0.39645875
121	0xbe013555	-0.12618001
122	0xbe8f2623	-0.27958784
123	0x3be29636	0.006914879
124	0xbee1b9a2	-0.4408694
125	0xbdd3089f	-0.10304379
126	0x3e996a4e	0.29963917
127	0x3de86da7	0.113490395
128	0xbe72dc47	-0.23716842
129	0xbd54e7df	-0.051978942
130	0xbd492f26	-0.04911723
131	0xbe9eafa7	-0.30993387
132	0xbda33971	-0.079699405
133	0x3c1baec8	0.00950212
134	0xbe835b30	-0.25655508
135	0x3e82a8fe	0.25519556
136	0x3e5739a9	0.2101809
137	0xbf14375a	-0.5789696
138	0x3ea31962	0.31855303
139	0x3d46acc9	0.048504625
140	0xbdbc81ac	-0.092044204
141	0xbe997dd9	-0.29978827
142	0x3d3ba997	0.04581603
143	0x3dcc89c6	0.09987216
144	0xb97883ed	-0.00023700269
145	0xbda122d4	-0.07867971
146	0x3e589e9b	0.21154253
147	0x3d9bbd62	0.07604481
148	0xbe2850be	-0.1643705
149	0x3da0da65	0.078541555
150	0x3ab9f7c0	0.0014188215
151	0x3e712ac7	0.23551475
152	0x3d819db8	0.063289106
153	0x3e21e264	0.15809017
154	0x3e87747a	0.26456052
155	0x3ecad5ca	0.39616233
156	0x3e5e7c2f	0.2172706
157	0x3df39c52	0.1189505
158	0xbed319d2	-0.41230637
159	0x3d465705	0.048422832
160	0x3e6c9a1b	0.23105662
161	0xbcae3796	-0.02126674
162	0xbdbbba21	-0.09166361
163	0x3c8ced87	0.017203106
164	0xbcd26d7d	-0.025686974
165	0x3ebe6971	0.3718982
166	0xba1ce360	-0.0005984809
167	0xbe53eb78	-0.20695293
168	0xbebccca4	-0.36874878
169	0x3bc253d1	0.005930402
170	0xbd7634fc	-0.060109124
171	0xbe0c2f94	-0.13690025
172	0xbd0767c7	-0.033057954
173	0x3d6e8963	0.05823649
174	0xbebc39dc	-0.36762893
175	0xbedcc3a5	-0.43118015
176	0xbec69232	-0.38783413
177	0xbe541dec	-0.2071454
178	0xbd05d9a3	-0.032678258
179	0x3e8f0dcf	0.27940223
180	0x3ea7d146	0.3277685
181	0xbd0c95cd	-0.03432255
182	0x3e65d571	0.22444703
183	0xbd646ebd	-0.05576967
184	0x3e94f66f	0.29094264
185	0x3e9f0219	0.31056288
186	0x3d977dd0	0.07397044
187	0x3ead3382	0.3382836
188	0xbd3b4d65	-0.045728106
189	0xbe54b7f3	-0.20773296
190	0x3e3ad874	0.18246633
191	0x3e2fb563	0.17159037
192	0xbe04692a	-0.12930742
193	0x3d832c2b	0.06404909
194	0x3e908d7a	0.28232938
195	0xbe86bc43	-0.26315507
196	0x3cc311f7	0.023812277
197	0xbd66e0fd	-0.05636691
198	0x3def5518	0.11686152
199	0xbd7fa2cc	-0.062411115
200	0xbe9aba1d	-0.30220118
201	0xbe67dd80	-0.2264309
202	0xbe193a0f	-0.14963554
203	0xbb795708	-0.003804626
204	0x3d1344fb	0.035954457
205	0x3d1bd817	0.038047876
206	0x3dd0f873	0.10203638
207	0x3e08ad79	0.13347425
208	0x3d74ba93	0.059748244
209	0x3dbced76	0.092249796
210	0xbec10842	-0.37701613
211	0x3e6e0b09	0.23246397
212	0x3e331205	0.17487343
213	0xbd2cad5e	-0.042157523
214	0xbe2500eb	-0.16113631
215	0x3dcea09b	0.10089227
216	0xbe029c7f	-0.12755011
217	0xbc8dd8c5	-0.017315278
218	0xbe0d1d37	-0.13780676
219	0x3e8312b5	0.2560021
220	0xbeb08f7f	-0.3448448
221	0xbdfebfb1	-0.12438906
222	0xbe24c587	-0.16090976
223	0xbd0af743	-0.033927213
224	0xbe2613d9	-0.16218509
225	0x3e3284c4	0.17433459
226	0xbdbfb283	-0.0936022
227	0x3d318b8b	0.04334597
228	0x3e44b2ae	0.19208786
229	0x3e7fb0f0	0.2496984
230	0x3ea01b5b	0.3127087
231	0xbf10c1e7	-0.5654587
232	0x3d4d86a1	0.05017722
233	0xbf0e5800	-0.5560303
234	0xbe8f86bc	-0.28032482
235	0xbe044fb9	-0.12921037
236	0xbe5c5890	-0.21518159
237	0x3c11232a	0.008858481
238	0x3c52f092	0.012874739
239	0xbe1d9203	-0.1538773
240	0xbe8b90a7	-0.27258798
241	0xbeb62ed8	-0.35582614
242	0xbd6a6577	-0.05722567
243	0x3d8b303e	0.06796311
244	0x3e93181f	0.2872934
245	0x3e695270	0.22785354
246	0x3d3ea115	0.04654034
247	0x3d481e4e	0.048857026
248	0xbe98246b	-0.29715285
249	0xbd8802ac	-0.066411346
250	0xbe9bf8e7	-0.30463335
251	0x3dcf9345	0.10135511
252	0xbed72662	-0.4202147
253	0x3a245b18	0.00062696775
254	0x3e9e5ffc	0.30932605
255	0x3e23e984	0.16007048

fc3.bias f4 [17]
0	0x3e4c6f42	0.19964316
1	0x3e096d15	0.13420518
2	0x3de1be68	0.11022645
3	0x3e950572	0.29105717
4	0x3e0036aa	0.12520853
5	0x3e77179d	0.24130102
6	0x3e7a6567	0.24452744
7	0x3e1d9eeb	0.15392654
8	0x3e998d37	0.2999055
9	0x3e146a57	0.1449369
10	0x3e489fbf	0.19592188
11	0x3e35150f	0.17683814
12	0x3e6ad8f9	0.22934331
13	0x3e8713f3	0.26382408
14	0x3ea55b65	0.3229629
15	0x3db5c85f	0.088761084
16	0x3e0e6480	0.13905525
